…
+   "outputs": [],
+   "source": [
+    "# model.add(Dense(1, input_dim=8, activation=\"sigmoid\")) #Relu is valid option. "
+   ]
+  },
+  {
+   "cell_type": "code",
+   "execution_count": 274,
+   "metadata": {},
+   "outputs": [
+    {
+     "name": "stdout",
+     "output_type": "stream",
+     "text": [
+      "Model: \"sequential_17\"\n",
+      "_________________________________________________________________\n",
+      "Layer (type)                 Output Shape              Param #   \n",
+      "=================================================================\n",
+      "Dense (Dense)                (None, 13)                182       \n",
+      "_________________________________________________________________\n",
+      "dense_77 (Dense)             (None, 26)                364       \n",
+      "_________________________________________________________________\n",
+      "dense_78 (Dense)             (None, 15)                405       \n",
+      "_________________________________________________________________\n",
+      "dense_79 (Dense)             (None, 7)                 112       \n",
+      "_________________________________________________________________\n",
+      "dense_80 (Dense)             (None, 1)                 8         \n",
+      "=================================================================\n",
+      "Total params: 1,071\n",
+      "Trainable params: 1,071\n",
+      "Non-trainable params: 0\n",
+      "_________________________________________________________________\n"
+     ]
+    }
+   ],
+   "source": [
+    "model.compile(loss='binary_crossentropy', optimizer='adam', metrics=['MSE'])\n",
+    "model.summary()"
…
+    "scores = model.evaluate(X_test, y_test)\n",
+    "print(f\"{model.metrics_names[1]}: {scores[1]}\")"
+   ]
+  },
+  {
+   "cell_type": "code",
+   "execution_count": 277,
+   "metadata": {},
+   "outputs": [
+    {
+     "name": "stdout",
+     "output_type": "stream",
+     "text": [
+      "Model: \"sequential_18\"\n",
+      "_________________________________________________________________\n",
+      "Layer (type)                 Output Shape              Param #   \n",
+      "=================================================================\n",
+      "Dense (Dense)                (None, 13)                182       \n",
+      "_________________________________________________________________\n",
+      "dense_81 (Dense)             (None, 26)                364       \n",
+      "_________________________________________________________________\n",
+      "dense_82 (Dense)             (None, 15)                405       \n",
+      "_________________________________________________________________\n",
+      "dense_83 (Dense)             (None, 7)                 112       \n",
+      "_________________________________________________________________\n",
+      "dense_84 (Dense)             (None, 1)                 8         \n",
+      "_________________________________________________________________\n",
+      "dense_85 (Dense)             (None, 7)                 14        \n",
+      "_________________________________________________________________\n",
+      "dense_86 (Dense)             (None, 5)                 40        \n",
+      "_________________________________________________________________\n",
+      "dense_87 (Dense)             (None, 1)                 6         \n",
+      "=================================================================\n",
+      "Total params: 1,131\n",
+      "Trainable params: 1,131\n",
+      "Non-trainable params: 0\n",
+      "_________________________________________________________________\n"
+     ]
+    }
+   ],
+   "source": [
+    "model1 =Sequential()\n",
+    "model1.add(Dense(13, input_dim=13, activation='relu', name='Dense'))\n",
…
+    "scores = model1.evaluate(X_test, y_test)\n",
+    "print(f\"{model1.metrics_names[1]}: {scores[1]}\")"
+   ]
+  },
+  {
+   "cell_type": "code",
+   "execution_count": 280,
+   "metadata": {},
+   "outputs": [
+    {
+     "name": "stdout",
+     "output_type": "stream",
+     "text": [
+      "Model: \"sequential_19\"\n",
+      "_________________________________________________________________\n",
+      "Layer (type)                 Output Shape              Param #   \n",
+      "=================================================================\n",
+      "Dense (Dense)                (None, 130)               1820      \n",
+      "_________________________________________________________________\n",
+      "dense_88 (Dense)             (None, 260)               34060     \n",
+      "_________________________________________________________________\n",
+      "dense_89 (Dense)             (None, 150)               39150     \n",
+      "_________________________________________________________________\n",
+      "dense_90 (Dense)             (None, 75)                11325     \n",
+      "_________________________________________________________________\n",
+      "dense_91 (Dense)             (None, 19)                1444      \n",
+      "_________________________________________________________________\n",
+      "dense_92 (Dense)             (None, 7)                 140       \n",
+      "_________________________________________________________________\n",
+      "dense_93 (Dense)             (None, 5)                 40        \n",
+      "_________________________________________________________________\n",
+      "dense_94 (Dense)             (None, 1)                 6         \n",
+      "=================================================================\n",
+      "Total params: 87,985\n",
+      "Trainable params: 87,985\n",
+      "Non-trainable params: 0\n",
+      "_________________________________________________________________\n"
+     ]
+    }
+   ],
+   "source": [
+    "model2 =Sequential()\n",
+    "model2.add(Dense(130, input_dim=13, activation='relu', name='Dense'))\n",
…
+  {
+   "cell_type": "code",
+   "execution_count": null,
+   "metadata": {},
+   "outputs": [],
+   "source": []
+  },
+  {
+   "cell_type": "code",
+   "execution_count": 331,
+   "metadata": {},
+   "outputs": [
+    {
+     "name": "stdout",
+     "output_type": "stream",
+     "text": [
+      "Model: \"sequential_21\"\n",
+      "_________________________________________________________________\n",
+      "Layer (type)                 Output Shape              Param #   \n",
+      "=================================================================\n",
+      "dense_100 (Dense)            (None, 16)                12560     \n",
+      "_________________________________________________________________\n",
+      "dense_101 (Dense)            (None, 16)                272       \n",
+      "_________________________________________________________________\n",
+      "dense_102 (Dense)            (None, 16)                272       \n",
+      "_________________________________________________________________\n",
+      "dense_103 (Dense)            (None, 16)                272       \n",
+      "_________________________________________________________________\n",
+      "dense_104 (Dense)            (None, 1)                 17        \n",
+      "=================================================================\n",
+      "Total params: 13,393\n",
+      "Trainable params: 13,393\n",
+      "Non-trainable params: 0\n",
+      "_________________________________________________________________\n"
+     ]
+    }
+   ],
+   "source": [
+    "fashion_mnist_model = Sequential()\n",
+    "\n",
+    "# input => Hidden\n",
+    "fashion_mnist_model.add(Dense(16, input_dim = 784, activation = 'relu'))\n",
…
==========================] - 0s 142us/sample - loss: 0.6205 - accuracy: 0.6510\n",
-      "accuracy: 65.10416865348816\n"
+      "768/768 [==============================] - 0s 40us/sample - loss: 0.5903 - accuracy: 0.7057\n",
+      "accuracy: 70.57291865348816\n"
      ]
     }
    ],
@@ -1036,7 +1036,7 @@
   },
   {
    "cell_type": "code",
-   "execution_count": 22,
+   "execution_count": 37,
    "metadata": {
     "colab": {},
     "colab_type": "code",
@@ -1053,9 +1053,9 @@
       "=================================================================\n",
       "Dense1 (Dense)               (None, 4)                 36        \n",
       "_________________________________________________________________\n",
-      "dense_6 (Dense)              (None, 3)                 15        \n",
+      "dense_5 (Dense)              (None, 3)                 15        \n",
       "_________________________________________________________________\n",
-      "dense_7 (Dense)              (None, 1)                 4         \n",
+      "dense_6 (Dense)              (None, 1)                 4         \n",
       "=================================================================\n",
       "Total params: 55\n",
       "Trainable params: 55\n",
@@ -1082,16 +1082,16 @@
   },
   {
    "cell_type": "code",
-   "execution_count": 24,
+   "execution_count": 38,
    "metadata": {},
    "outputs": [
     {
      "data": {
       "text/plain": [
-       "<tensorflow.python.keras.callbacks.History at 0x7fb4306ce2e8>"
…
====================================================] - 0s 68us/sample - loss: 0.5155 - accuracy: 0.7578\n",
-      "accuracy: 75.78125\n"
+      "768/768 [==============================] - 0s 161us/sample - loss: 0.5891 - accuracy: 0.6771\n",
+      "accuracy: 67.70833134651184\n"
      ]
     }
    ],
@@ -1128,7 +1128,7 @@
   },
   {
    "cell_type": "code",
-   "execution_count": 29,
+   "execution_count": 40,
    "metadata": {},
    "outputs": [
     {
@@ -1141,11 +1141,11 @@
       "=================================================================\n",
       "Dense1 (Dense)               (None, 4)                 36        \n",
       "_________________________________________________________________\n",
-      "dense_8 (Dense)              (None, 3)                 15        \n",
+      "dense_7 (Dense)              (None, 3)                 15        \n",
       "_________________________________________________________________\n",
-      "dense_9 (Dense)              (None, 3)                 12        \n",
+      "dense_8 (Dense)              (None, 3)                 12        \n",
       "_________________________________________________________________\n",
-      "dense_10 (Dense)             (None, 1)                 4         \n",
+      "dense_9 (Dense)              (None, 1)                 4         \n",
       "=================================================================\n",
       "Total params: 67\n",
       "Trainable params: 67\n",
@@ -1173,16 +1173,16 @@
   },
   {
    "cell_type": "code",
-   "execution_count": 30,
+   "execution_count": 41,
    "metadata": {},
    "outputs": [
     {
      "data": {
       "text/plain": [
-       "<tensorflow.python.keras.callbacks.History at 0x7fb430342ac8>"
…
+      "768/768 [==============================] - 0s 140us/sample - loss: 0.6071 - accuracy: 0.6628\n"
      ]
     },
     {
      "data": {
       "text/plain": [
-       "[0.639621468881766, 0.6510417]"
+       "[0.6071027877430121, 0.66276044]"
       ]
      },
-     "execution_count": 31,
+     "execution_count": 42,
      "metadata": {},
      "output_type": "execute_result"
     }
@@ -1228,7 +1228,7 @@
   },
   {
    "cell_type": "code",
-   "execution_count": 32,
+   "execution_count": 43,
    "metadata": {},
    "outputs": [
     {
@@ -1241,11 +1241,11 @@
       "=================================================================\n",
       "Dense1 (Dense)               (None, 8)                 72        \n",
       "_________________________________________________________________\n",
-      "dense_11 (Dense)             (None, 8)                 72        \n",
+      "dense_10 (Dense)             (None, 8)                 72        \n",
       "_________________________________________________________________\n",
-      "dense_12 (Dense)             (None, 8)                 72        \n",
+      "dense_11 (Dense)             (None, 8)                 72        \n",
       "_________________________________________________________________\n",
-      "dense_13 (Dense)             (None, 1)                 9         \n",
+      "dense_12 (Dense)             (None, 1)                 9         \n",
       "=================================================================\n",
       "Total params: 225\n",
       "Trainable params: 225\n",
@@ -1271,9 +1271,66 @@
     "model_improved.summary()"
    ]
   },
+  {
+   "cell_type": "markdown",
+   "metadata": {},
+   "source": [
+    "model_improved.fit(X,y, epochs=250, validation_split=.10)"
+   ]
+  },
   {
    "cell_type": "code",
-   "execution_count": 37,
…
      "output_type": "execute_result"
     }
@@ -2188,26 +2433,26 @@
   },
   {
    "cell_type": "code",
-   "execution_count": 49,
+   "execution_count": 71,
    "metadata": {},
    "outputs": [
     {
      "name": "stdout",
      "output_type": "stream",
      "text": [
-      "Model: \"sequential_3\"\n",
+      "Model: \"sequential_6\"\n",
       "_________________________________________________________________\n",
       "Layer (type)                 Output Shape              Param #   \n",
       "=================================================================\n",
-      "dense_14 (Dense)             (None, 16)                12560     \n",
+      "dense_25 (Dense)             (None, 16)                12560     \n",
       "_________________________________________________________________\n",
-      "dense_15 (Dense)             (None, 16)                272       \n",
+      "dense_26 (Dense)             (None, 16)                272       \n",
       "_________________________________________________________________\n",
-      "dense_16 (Dense)             (None, 16)                272       \n",
+      "dense_27 (Dense)             (None, 16)                272       \n",
       "_________________________________________________________________\n",
-      "dense_17 (Dense)             (None, 16)                272       \n",
+      "dense_28 (Dense)             (None, 16)                272       \n",
       "_________________________________________________________________\n",
-      "dense_18 (Dense)             (None, 10)                170       \n",
+      "dense_29 (Dense)             (None, 10)                170       \n",
       "=================================================================\n",
       "Total params: 13,546\n",
       "Trainable params: 13,546\n",
@@ -2240,7 +2485,7 @@
   },
   {
    "cell_type": "code",
-   "execution_count": null,
+   "execution_count": 72,
    "metadata": {},
    "outputs": [],
    "source": [
@@ -2255,47 +2500,54 @@
   },
   {
    "cell_type": "code",
-   "execution_count": null,
…
+      "10000/10000 [==============================] - 0s 28us/sample - loss: 0.2631 - accuracy: 0.9433\n"
      ]
     }
    ],
@@ -2319,9 +2571,34 @@
   },
   {
    "cell_type": "code",
-   "execution_count": null,
+   "execution_count": 57,
    "metadata": {},
-   "outputs": [],
+   "outputs": [
+    {
+     "name": "stdout",
+     "output_type": "stream",
+     "text": [
+      "Model: \"sequential_5\"\n",
+      "_________________________________________________________________\n",
+      "Layer (type)                 Output Shape              Param #   \n",
+      "=================================================================\n",
+      "dense_22 (Dense)             (None, 32)                25120     \n",
+      "_________________________________________________________________\n",
+      "dropout (Dropout)            (None, 32)                0         \n",
+      "_________________________________________________________________\n",
+      "dense_23 (Dense)             (None, 16)                528       \n",
+      "_________________________________________________________________\n",
+      "dropout_1 (Dropout)          (None, 16)                0         \n",
+      "_________________________________________________________________\n",
+      "dense_24 (Dense)             (None, 10)                170       \n",
+      "=================================================================\n",
+      "Total params: 25,818\n",
+      "Trainable params: 25,818\n",
+      "Non-trainable params: 0\n",
+      "_________________________________________________________________\n"
+     ]
+    }
+   ],
    "source": [
     "### Let's do it!\n",
     "from tensorflow import keras \n",
@@ -2349,9 +2626,21 @@
…
